…
"id":"08GH0Abg18to","colab":{"base_uri":"https://localhost:8080/"},"executionInfo":{"status":"ok","timestamp":1672116109001,"user_tz":-540,"elapsed":1219,"user":{"displayName":"Eddison KIM","userId":"04832200980885410231"}},"outputId":"fa17312e-36cb-4698-c3c5-1b2fe906b993"},"outputs":[{"output_type":"stream","name":"stdout","text":["Model: \"sequential\"\n","_________________________________________________________________\n"," Layer (type)                Output Shape              Param #   \n","=================================================================\n"," conv2d (Conv2D)             (None, 166, 29, 4)        104       \n","                                                                 \n"," max_pooling2d (MaxPooling2D  (None, 82, 14, 4)        0         \n"," )                                                               \n","                                                                 \n"," batch_normalization (BatchN  (None, 82, 14, 4)        16        \n"," ormalization)                                                   \n","                                                                 \n"," conv2d_1 (Conv2D)           (None, 41, 7, 16)         592       \n","                                                                 \n"," max_pooling2d_1 (MaxPooling  (None, 20, 2, 16)        0         \n"," 2D)                                                             \n","                                                                 \n"," batch_normalization_1 (Batc  (None, 20, 2, 16)        64        \n"," hNormalization)                                                 \n","                                                                 \n"," conv2d_2 (Conv2D)           (None, 10, 1, 8)          1160      \n","                                                                 \n"," max_pooling2d_2 (MaxPooling  (None, 5, 1, 8)          0         \n"," 2D)                                                             \n","                                                                 \n"," batch_normalization_2 (Batc  (None, 5, 1, 8)          32        \n"," hNormalization)                                                 \n","                                                                 \n"," flatten (Flatten)           (None, 40)                0         \n","                                                                 \n"," dense (Dense)               (None, 64)                2624      \n","                                                                 \n"," dropout (Dropout)           (None, 64)                0         \n","                                                                 \n"," dense_1 (Dense)             (None, 32)                2080      \n","                                                                 \n"," dropout_1 (Dropout)         (None, 32)                0         \n","                                                                 \n"," my_intermediate_layer (Dens  (None, 32)               1056      \n"," e)                                                              \n","                                                                 \n"," dropout_2 (Dropout)         (None, 32)                0         \n","                                                                 \n"," dense_2 (Dense)             (None, 6)                 198       \n","                                                                 \n","=================================================================\n","Total params: 7,926\n","Trainable params: 7,870\n","Non-trainable params: 56\n","_________________________________________________________________\n","None\n"]},{"output_type":"stream","name":"stderr","text":["/usr/local/lib/python3.8/dist-packages
…
